ChestXRay-PNEUMONIADetection.pth (torch, 86950 bytes, 14 tensors)

conv_block_l.0.weight f4 [10, 1, 3, 3]
0.2572425 0.27713397 -0.09519633 0.314437 -0.06107943 0.06303659 -0.16613743 0.20223579
0.28708422 -0.25728062 0.30020747 0.07021768 0.25284585 0.079413034 0.19116385 -0.045974147
0.28458196 0.07126058 -0.14875484 0.088998385 -0.15353881 -0.032074254 -0.1304222 0.22173557
-0.255967 -0.14851482 -0.09319125 -0.21283402 0.013173985 -0.3448971 0.29836026 -0.29339454
0.24721122 0.059889108 -0.10955987 0.20184341 0.09935777 0.34544253 0.09671606 -0.04588196
0.18333651 -0.011795632 0.18223198 0.37276763 0.25506705 -0.14572418 0.19242156 0.059642076
0.16927835 -0.20316836 -0.3299695 -0.12878685 -0.2556743 0.27351296 0.08635765 0.11742109
0.076132804 -0.023149665 0.22869813 -0.2780962 0.00047703815 -0.26422322 0.058734983 -0.11112953
0.10601415 -0.067222774 0.28153887 -0.19191217 -0.19494611 -0.19237629 0.3073628 0.11769735
0.32121617 -0.2750264 -0.33059573 -0.2602143 -0.22402938 0.13517648 0.12104543 0.27839267
-0.17081593 -0.22723727 0.17685938 -0.13473484 0.20230794 -0.079100214 0.19068198 -0.25898933
-0.16821659 0.10162549
00000000: 4ab5 833e 81e4 8d3e 4bf6 c2bd e3fd a03e
00000010: 6d2e 7abd 5419 813d ee1f 2abe e616 4f3e
00000020: b4fc 923e 49ba 83be cbb4 993e 49ce 8f3d
00000030: 0375 813e 4da3 a23d 75c0 433e 634f 3cbd
00000040: bab4 913e 11f1 913d 3053 18be c944 b63d
00000050: 4739 1dbe 4b60 03bd 668d 05be a60e 633e
00000060: 1b0e 83be 4514 18be 0edb bebd 29f1 59be
00000070: b3d7 573c 5a96 b0be adc2 983e cf37 96be
00000080: f024 7d3e 484e 753d ed60 e0bd 0ab0 4e3e
00000090: 167c cb3d d8dd b03e 1213 c63d b9ee 3bbd
000000a0: 91bc 3b3e 7742 41bc 059b 3a3e 66db be3e
000000b0: 2698 823e b838 15be 280a 453e 404b 743d
000000c0: 4e57 2d3e 5e0b 50be c3f1 a8be b3e0 03be
000000d0: bee7 82be e409 8c3e 48dc b03d 787a f03d
000000e0: 84eb 9b3d 5ea4 bdbc d82f 6a3e a062 8ebe
000000f0: fa1a fa39 4448 87be 1894 703d e197 e3bd
00000100: f21d d93d 18ac 89bd dd25 903e a084 44be
00000110: f49f 47be 4afe 44be a85e 9d3e 4f0b f13d
00000120: 7276 a43e 43d0 8cbe d843 a9be cf3a 85be
00000130: f567 65be b46b 0a3e abe6 f73d 7c89 8e3e
00000140: 5fea 2ebe e3b0 68be a01a 353e eef7 09be
00000150: d029 4f3e 4bff a1bd 2342 433e 409a 84be
00000160: f840 2cbe 0621 d03d

conv_block_l.0.bias f4 [10]
-0.12800191 -0.23914193 0.2423594 0.22254422 -0.4522788 -0.17795607 0.2477096 -0.104161754
-0.115869395 -0.32253155
00000000: ef12 03be 9fe1 74be 102d 783e a2e2 633e
00000010: 1691 e7be 1e3a 36be 96a7 7d3e c252 d5bd
00000020: ef4c edbd db22 a5be

conv_block_l.2.weight f4 [10, 10, 3, 3]
-0.056916088 0.030187324 -0.00991365 -0.0731789 0.005910437 -0.068468496 -0.0862578 -0.054973062
-0.08915967 -0.06642311 0.1061634 0.02078551 0.032965656 -0.097968824 -0.06867784 -0.034564435
0.016778283 -0.09230132 -0.043472793 -0.06111005 0.0023596967 -0.037239853 -0.0053964206 -0.0693283
-0.07047874 -0.059665598 -0.033965636 -0.0797947 0.09210922 -0.017363247 0.09416277 0.03639523
-0.08577458 0.07662467 -0.025312316 -0.036674127 -0.0872789 -0.10455002 0.030446636 -0.02275748
0.041117504 -0.08632514 0.07863623 -0.0772639 -0.018100848 0.0220168 0.05441772 0.08509798
0.09602354 -0.083581336 0.026528059 -0.045339257 -0.0115512535 -0.07889778 0.101813525 -0.071560174
0.062346414 0.0427924 0.039985828 -0.050984416 0.10120397 0.02853796 0.01918438 -0.092891484
0.044251572 -0.015809821 -0.048287254 0.090540774 0.023501476 -0.058324434 -0.053349163 -0.0050363443
0.05885082 -0.026936 -0.060144898 -0.03610265 -0.0787484 0.03759237 0.08157629 -0.099241644
0.024481269 0.054453555 0.019113794 -0.037538834 0.055017535 0.055393953 0.039415393 -0.018522663
-0.027912505 0.01127678 -0.019035999 -0.031670827 0.06727689 0.09013814 -0.010726125 -0.023723185
0.001023289 -0.006731423 0.025095273 0.029289868 -0.0957728 -0.038917243 0.08851723 0.041000932
-0.005285193 -0.0638389 -0.06464741 -0.094557285 -0.034359444 0.03559714 0.06716559 0.048665456
-0.093175866 -0.06340699 -0.01663793 0.10196525 0.015247944 -0.027323376 0.0434702 -0.040261675
-0.06826409 0.07677769 -0.04807555 -0.021211445 -0.10502848 0.07035358 0.07948321 0.038319953
-0.07352079 -0.1044269 -0.08574191 0.07855313 0.05014505 0.08839199 0.05499164 0.026678257
-0.0010322398 -0.08016437 -0.09031172 -0.098594405 0.04315054 -0.05175257 -0.021213885 -0.06066358
-0.019413099 -0.07437719 -0.06903411 0.03476268 -0.031484853 0.06493585 -0.034021303 -0.07744744
-0.018681519 -0.051115226 -0.032249782 -0.1003492 0.058948573 -0.07338839 0.052977435 0.047798082
0.07524911 -0.08087415 0.07580865 -0.049833328 0.039111447 0.09899138 -0.0148674445 -0.00081555214
-0.024268433 -0.08802054 0.050582692 -0.10464165 0.065438055 0.07886985 0.099686205 -0.024863888
-0.08660866 0.023699192 0.05823095 -0.104914755 -0.023925442 -0.06318737 -0.009218391 -0.05183789
-0.043046404 -0.033425745 -0.0999174 0.08674201 0.08861224 -0.016535442 -0.012004224 -0.04301962
-0.095187224 -0.10257604 0.03917841 -0.057681326 -0.06757481 -0.008040591 -0.035065733 -0.034065556
0.0034228412 -0.022301946 -0.036237758 -0.050412532 -0.08578321 0.08838764 -0.042183205 0.027967671
-0.036537264 0.0086013675 0.09848185 0.048771385 -0.091145866 0.04216888 0.10039016 0.02805365
0.070668995 0.103921674 -0.016151754 0.021902042 -0.07324428 -0.021706378 0.078312375 0.054285854
-0.06645957 -0.08452611 -0.072032854 -0.10402604 -0.08133789 -0.026067436 0.0711383 0.017643638
-0.080174856 -0.084561825 0.052481007 -0.07836514 -0.012935999 0.050707255 -0.048642505 -0.0113490885
-0.009109011 -0.024869593 -0.053375788 -0.09396586 -0.08520831 -0.056442615 0.10181455 -0.050909847
-0.07078093 0.025579551 0.029084325 0.05778989 0.08012372 0.05869969 -0.104513384 0.009351744
00000000: d820 69bd 684b f73c dd6c 22bc d2de 95bd
00000010: 57ac c13b 3639 8cbd eea7 b0bd 6f2b 61bd
00000020: 5899 b6bd d708 88bd 326c d93d 6046 aa3c
00000030: ff06 073d e1a3 c8bd f8a6 8cbd 7093 0dbd
00000040: 9c72 893c 7908 bdbd 8710 32bd 884e 7abd
00000050: 24a5 1a3b d188 18bd 75d4 b0bb fffb 8dbd
00000060: 2857 90bd ea63 74bd 8d1f 0bbd 676b a3bd
00000070: c2a3 bc3d 5e3d 8ebc 69d8 c03d 2a13 153d
00000080: 95aa afbd 65ed 9c3d c65b cfbc 9c37 16bd
00000090: 48bf b2bd 521e d6bd 396b f93c e56d babc
000000a0: d46a 283d 3ccb b0bd 080c a13d 893c 9ebd
000000b0: 3b48 94bc 935c b43c 1de5 5e3d da47 ae3d
000000c0: fda7 c43d b12c abbd 5f51 d93c a8b5 39bd
000000d0: 7841 3dbc 2995 a1bd 9c83 d03d 248e 92bd
000000e0: f45e 7f3d 1547 2f3d 2ec8 233d 09d5 50bd
000000f0: 0744 cf3d 71c8 e93c 9028 9d3c e43d bebd
00000100: 2341 353d 9983 81bc dbc8 45bd 716d b93d
00000110: 2b86 c03c 9ae5 6ebd a784 5abd eb07 a5bb
00000120: 8f0d 713d e3a8 dcbc 7f5a 76bd 5fe0 13bd
00000130: d746 a1bd 75fa 193d 7811 a73d 343f cbbd
00000140: f18c c83c b10a 5f3d 8894 9c3c 52c2 19bd
00000150: 115a 613d c5e4 623d 0972 213d d7bc 97bc
00000160: c4a8 e4bc 3ec2 383c 62f1 9bbc 45b9 01bd
00000170: 77c8 893d 589a b83d a1bc 2fbc 2057 c2bc
00000180: e21f 863a 4593 dcbb 9a94 cd3c 4ef1 ef3c
00000190: 8824 c4bd b067 1fbd 8548 b53d 98f0 273d
000001a0: 6a2f adbb f8bd 82bd dc65 84bd 40a7 c1bd
000001b0: 7dbc 0cbd 4fce 113d 1d8e 893d 6e55 473d
000001c0: fdd2 bebd 86db 81bd 454c 88bc 28d3 d03d
000001d0: 83d2 793c 46d5 dfbc cf0d 323d 6de9 24bd
000001e0: 0bce 8bbd 9f3d 9d3d deea 44bd a0c3 adbc
000001f0: 2c19 d7bd 8a15 903d 18c8 a23d 62f5 1c3d
00000200: 1192 96bd c5dd d5bd 7499 afbd 77e0 a03d
00000210: e564 4d3d dc06 b53d ea3e 613d 5c8c da3c
00000220: 384c 87ba 382d a4bd 5af5 b8bd ddeb c9bd
00000230: 9fbe 303d 81fa 53bd bec8 adbc 607a 78bd
00000240: 3808 9fbc 1153 98bd c161 8dbd 5063 0e3d
00000250: 43f6 00bd 16fd 843d ec59 0bbd c39c 9ebd
00000260: fc09 99bc 335e 51bd 5918 04bd e283 cdbd
00000270: 0f74 713d a74c 96bd defe 583d ecc7 433d
00000280: 351c 9a3d 59a1 a5bd 9141 9b3d 081e 4cbd
00000290: 5333 203d febb ca3d 9596 73bc c7ca 55ba
000002a0: 98ce c6bc 1d44 b4bd cc2f 4f3d 5d4e d6bd
000002b0: 6304 863d 8486 a13d 4828 cc3d 5aaf cbbc
000002c0: e25f b1bd cf24 c23c 9483 6e3d 8cdd d6bd
000002d0: 4aff c3bc 6168 81bd bc08 17bc f853 54bd
000002e0: 6d51 30bd 6fe9 08bd 7ea1 ccbd cca5 b13d
000002f0: 567a b53d 5675 87bc 5dad 44bc 5735 30bd
00000300: 85f1 c2bd 6313 d2bd 8a79 203d 4143 6cbd
00000310: a964 8abd afbc 03bc 16a1 0fbd 5388 0bbd
00000320: bf51 603b 92b2 b6bc 0b6e 14bd 5f7d 4ebd
00000330: 1caf afbd 9404 b53d 4cc8 2cbd 751c e53c
00000340: 19a8 15bd c0ec 0c3c dab0 c93d 81c4 473d
00000350: afaa babd 47b9 2c3d 5b99 cd3d c5d0 e53c
00000360: e8ba 903d e3d4 d43d af50 84bc e96b b33c
00000370: 1901 96bd 93d1 b1bc 3d62 a03d d85a 5e3d
00000380: f41b 88bd 061c adbd f685 93bd 9b0b d5bd
00000390: 7b94 a6bd 608b d5bc f5b0 913d 6489 903c
000003a0: b732 a4bd c02e adbd 53f6 563d e77d a0bd
000003b0: 83f1 53bc 69b2 4f3d 5d3d 47bd 87f1 39bc
000003c0: f63d 15bc 51bb cbbc 92a0 5abd 2c71 c0bd
000003d0: b281 aebd 5f30 67bd 2684 d03d d886 50bd
000003e0: 98f5 90bd 358c d13c 4042 ee3c 17b5 6c3d
000003f0: e817 a43d 166f 703d 1d0b d6bd 0f38 193c

conv_block_l.2.bias f4 [10]
0.06906061 -0.048475996 -0.053894687 0.009486537 -0.1904517 -0.046181627 -0.0540519 -0.090938516
-0.1787287 -0.06705698
00000000: a66f 8d3d c48e 46bd adc0 5cbd 6c6d 1b3c
00000010: c505 43be f228 3dbd 8665 5dbd f93d babd
00000020: a804 37be 2c55 89bd

conv_block_2.0.weight f4 [10, 10, 3, 3]
0.0274656 -0.085250415 -0.06374405 0.0016510026 0.014690858 0.0582357 -0.07384804 0.03380714
0.06000943 0.058531474 -0.09817794 -0.040221 -0.09060613 -0.06670408 0.058716282 -0.015739586
0.04476852 -0.061872542 0.016035648 -0.0637389 0.05271235 -0.046103794 -0.026432334 -0.09145617
0.0003482225 0.100084 0.05116335 -0.055785775 0.0067940587 -0.004319342 -0.08798814 0.08479899
0.0068326225 0.014957861 -0.04657792 -0.050096102 0.02009776 0.05269787 0.038288902 -0.046940975
0.12256189 0.00823349 -0.07298605 -0.042810343 0.11619042 7.27476e-05 -0.014264617 -0.04381285
-0.02752837 -0.08864032 -0.08362864 0.06198743 0.09049919 0.100936264 -0.075429104 0.05876093
-0.06248246 0.06319719 0.0769663 0.08398064 0.076611824 0.0671079 0.0041062464 0.052971847
-0.031060798 0.053488415 -0.03092734 0.004388543 -0.0840149 -0.025729598 -0.051110573 -0.029152827
-0.070414774 -0.08642222 0.018691598 0.0683695 0.11225851 0.08410148 -0.06581606 -0.1005921
0.051541448 0.06048475 -0.08765822 0.040595602 0.08965936 0.0084497025 -0.06135135 0.08509441
0.044950176 0.06993665 -0.07119327 0.061107323 -0.072882175 0.1042643 -0.044637866 0.062801875
0.020903138 0.027871992 -0.016725352 0.04330431 -0.043922324 -0.09934879 -0.04049157 0.08260081
-0.027740745 0.03313911 -0.038963877 0.079082474 0.06316256 0.037291273 -0.05380155 -0.0860809
0.004023221 -0.06178635 0.08666683 -0.10129574 0.04710415 0.113333575 0.06914043 0.054217003
-0.099257365 0.11082206 -0.006336881 -0.10557314 0.10366046 -0.040965542 0.039792575 0.16560036
-0.013476311 -0.030130586 0.0820087 0.043364137 0.044424135 -0.05013484 0.037002657 -0.04643682
-0.05137333 -0.096131176 0.056494776 0.020966744 -0.08852463 0.08462401 0.032817967 0.0205285
-0.06261988 0.016701117 0.104651704 0.070702285 -0.08203832 0.098187104 0.0068134326 0.05081427
0.08335471 0.10922068 -0.059147466 0.11659544 -0.05607083 0.027523393 -0.052782495 -0.008226937
0.013398678 0.006628432 0.016051592 0.06724227 0.16117088 0.09470281 0.11679718 0.09914768
0.092926465 0.02852529 0.04155796 0.034078892 -0.07682871 -0.071920216 0.022235915 -0.029665357
0.007878132 -0.019000165 0.023771888 0.07483613 -0.035300415 0.0840901 0.08241264 -0.08167173
-0.08170672 -0.08622906 -0.059033025 -0.041657213 -0.008919489 -0.025622124 -0.05324513 -0.033477467
-0.038120516 0.103422895 -0.039053198 -0.07546357 0.043829273 -0.0060731736 0.080845326 0.06601613
0.096995585 -0.07710732 0.067857035 0.08855704 -0.052054226 0.096890725 0.07902044 0.015121528
0.07666668 -0.008824381 -0.0857169 0.044591498 0.05216027 -0.07450405 0.056391418 -0.08175151
0.15270679 0.19463739 0.108735114 0.0011258875 0.15323855 0.11086171 0.067421384 0.10671573
0.14765869 -0.04476139 -0.023172656 0.029175147 0.012185811 0.085802056 -0.05464938 -0.0028085597
0.02085052 -0.026884623 0.06969668 0.011676563 -0.09430545 -0.015487203 -0.049476273 0.01143523
-0.016427644 -0.10656199 -0.018952714 0.01592285 -0.0007857276 0.12899777 -0.001915302 0.09417986
0.055205315 -0.06932099 0.04930858 0.11498975 -0.026558308 0.010436031 0.17786111 0.13775387
00000000: 8aff e03c c597 aebd 3e8c 82bd 7466 d83a
00000010: edb1 703c 8f88 6e3d a43d 97bd 5b79 0a3d
00000020: 73cc 753d b3be 6f3d 8411 c9bd c6be 24bd
00000030: b58f b9bd 269c 88bd 7c80 703d 4ef0 80bc
00000040: 325f 373d 106e 7dbd 315d 833c 8a89 82bd
00000050: e8e8 573d 55d7 3cbd 9f88 d8bc 5f4d bbbd
00000060: a291 b639 d7f8 cc3d a990 513d a07f 64bd
00000070: b2a0 de3b 4489 8dbb 2033 b4bd 18ab ad3d
00000080: 31e4 df3b d111 753c 7dc8 3ebd 9231 4dbd
00000090: 0fa4 a43c b9d9 573d d3d4 1c3d 2e45 40bd
000000a0: ba01 fb3d c3e5 063c b679 95bd e659 2fbd
000000b0: 3ef5 ed3d 1290 9838 24b6 69bc 1a75 33bd
000000c0: 2d83 e1bc 0e89 b5bd 7e45 abbd 88e6 7d3d
000000d0: a457 b93d acb7 ce3d 937a 9abd 4daf 703d
000000e0: 9ced 7fbd 876d 813d 82a0 9d3d 0bfe ab3d
000000f0: a9e6 9c3d de6f 893d b18d 863b 02f9 583d
00000100: 3773 febc ab16 5b3d 555b fdbc c4cd 8f3b
00000110: 0110 acbd e1c6 d2bc 5259 51bd e9d1 eebc
00000120: 9f35 90bd 22fe b0bd 1f1f 993c 4f05 8c3d
00000130: cae7 e53d 663d ac3d 92ca 86bd 3b03 cebd
00000140: 201d 533d dbbe 773d 2786 b3bd 9347 263d
00000150: 549f b73d 9f70 0a3c 8e4b 7bbd fa45 ae3d
00000160: ad1d 383d f23a 8f3d c7cd 91bd ac4b 7a3d
00000170: 4043 95bd 8588 d53d 32d6 36bd 459e 803d
00000180: 0f3d ab3c ce53 e43c 9b03 89bc dc5f 313d
00000190: e5e7 33bd 6177 cbbd 7dda 25bd 9d2a a93d
000001a0: 8f40 e3bc e0bc 073d 9698 1fbd fef5 a13d
000001b0: 5f5b 813d bcbe 183d 045f 5cbd 2f4b b0bd
000001c0: 39d5 833b af13 7dbd 617e b13d 2474 cfbd
000001d0: 48f0 403d 6f1b e83d 7f99 8d3d a612 5e3d
000001e0: 7247 cbbd adf6 e23d 9ca5 cfbb bb36 d8bd
000001f0: ef4b d43d 7ccb 27bd 8afd 223d 2493 293e
00000200: bfcb 5cbc 6bd4 f6bc 2df4 a73d 989e 313d
00000210: 15f6 353d 315a 4dbd 1990 173d 8934 3ebd
00000220: d76c 52bd 6ce0 c4bd 1167 673d 73c2 ab3c
00000230: 674c b5bd 5a4f ad3d 226c 063d 632b a83c
00000240: da3e 80bd c8d0 883c a253 d63d 5ccc 903d
00000250: b503 a8bd 5216 c93d 3743 df3b a022 503d
00000260: e0b5 aa3d 18af df3d 9d44 72bd 97c9 ee3d
00000270: 87aa 65bd bd78 e13c 7532 58bd 46ca 06bc
00000280: 2186 5b3c 5133 d93b a17e 833c 51b6 893d
00000290: fb09 253e 8cf3 c13d 5c33 ef3d f00d cb3d
000002a0: 3b50 be3d dead e93c ae38 2a3d 4f96 0b3d
000002b0: 5f58 9dbd e84a 93bd 1828 b63c c304 f3bc
000002c0: 4813 013c 3ca6 9bbc 43bd c23c af43 993d
000002d0: 2b97 10bd 6e37 ac3d f5c7 a83d 8243 a7bd
000002e0: da55 a7bd dd98 b0bd 9dcc 71bd c1a0 2abd
000002f0: 0c23 12bc 7de5 d1bc 9117 5abd ab1f 09bd
00000300: 4224 1cbd 62cf d33d 3ff6 1fbd a58c 9abd
00000310: 5386 333d 7901 c7bb 3c92 a53d 7733 873d
00000320: 9fa5 c63d 71ea 9dbd a1f8 8a3d 655d b53d
00000330: d036 55bd a56e c63d 78d5 a13d 49c0 773c
00000340: 6c03 9d3d 2394 10bc 588c afbd 93a5 363d
00000350: 02a6 553d 9495 98bd b0fa 663d 566d a7bd
00000360: 2b5f 1c3e 064f 473e 84b0 de3d 8492 933a
00000370: 91ea 1c3e 770b e33d 3914 8a3d c78d da3d
00000380: d733 173e b857 37bd 95d4 bdbc b800 ef3c
00000390: ffa6 473c fdb8 af3d 07d8 5fbd d00f 38bb
000003a0: b6ce aa3c 243d dcbc 22bd 8e3d 0e4f 3f3c
000003b0: 3723 c1bd 0abe 7dbc a2a7 4abd d55a 3b3c
000003c0: 4493 86bc 2c3d dabd b942 9bbc a370 823c
000003d0: 49f9 4dba fe17 043e df0a fbba 5fe1 c03d
000003e0: f81e 623d 2af8 8dbd cbf7 493d bf7f eb3d
000003f0: cf90 d9bc e3fb 2a3c 3921 363e 5a0f 0d3e

conv_block_2.0.bias f4 [10]
-0.129068 -0.1283303 -0.083282515 -0.09671681 -0.10049958 0.0738998 -0.044309914 -0.038799793
0.29086307 -0.058849093
00000000: 672a 04be 0569 03be 0690 aabd 7613 c6bd
00000010: b9d2 cdbd c758 973d 507e 35bd 88ec 1ebd
00000020: 01ec 943e bf0b 71bd

conv_block_2.2.weight f4 [10, 10, 3, 3]
-0.06527672 -0.07971101 -0.019496135 -0.027422411 0.06505858 -0.005198231 0.034844883 -0.042968176
0.08711727 0.10888141 -0.07558073 -0.007156245 -0.060812864 0.072857074 -0.06294419 -0.015128716
0.1403764 -0.06494172 0.10796264 0.039006867 0.117152855 -0.009796727 0.113488995 0.059458833
0.062157676 0.12725067 -0.04366909 -0.08490202 0.101800404 -0.06329789 -0.0759798 -0.005153948
-0.03374176 -0.014421236 -0.070622675 0.03803365 -0.09070273 0.008537405 0.061510462 0.020252919
0.014005711 0.015417588 -0.030879695 -0.020080278 -0.04445038 -0.06663982 -0.05188976 0.10851965
-0.0143894525 0.03982145 0.07609854 -0.0047133723 -0.053578712 -0.0679515 -0.011012197 0.06516161
-0.060566414 0.025250468 0.07860813 0.1250994 0.07803835 0.06842124 0.119521715 0.056489933
0.04349454 -0.024088059 -0.07375529 -0.011532223 -0.007303877 0.019622346 0.0010280823 0.055592846
0.08030242 -0.03334714 -0.09031519 -0.04465786 -0.041827668 0.06872646 -0.057374217 -0.00036277116
-0.01231984 -0.063208446 0.048680875 -0.04302751 -0.0050159944 -0.07351008 -0.009924269 0.015205189
-0.0040082512 -0.03895029 0.035182122 -0.024695648 -0.056425888 -0.07544506 -0.02092781 -0.09851017
0.08912734 -0.04934956 -0.042928953 0.025503054 0.0448185 0.003733461 0.08319353 -0.05101972
0.04430355 0.0051120715 -0.0821941 -0.040163644 0.050723832 0.043465074 0.09299888 0.08546055
-0.04499841 -0.038152866 -0.015599943 -0.07162409 -0.028291654 -0.086257756 0.04009158 0.07458331
0.008345928 -0.07546045 -0.07982727 -0.041035734 0.030658638 0.0025711434 0.019165715 0.09934625
0.048956487 0.022665368 -0.0213266 0.049863737 0.03856298 -0.09487911 -0.062266193 0.0038322164
0.040204193 0.05143459 -0.0626134 -0.10458874 -0.0055566467 -0.011434614 0.031009607 -0.028608698
0.099646725 0.027777728 0.09344983 -0.06119817 0.05427 0.020407822 -0.046023343 0.057633348
-0.10165467 0.091611855 0.014457125 0.013652025 0.052788246 0.011834206 0.046246964 0.06802568
-0.08232173 0.068953246 -0.013626301 -0.022012819 0.024559746 0.08485028 -0.054183487 -0.06747783
0.07033568 -0.04417497 0.038862977 -0.015617215 0.028898401 0.080377564 -0.053429686 -0.05117543
0.05170325 0.0057466747 -0.01162521 -0.092594884 0.12668358 0.026179016 0.0012528625 -0.008031294
0.00910961 0.07093536 0.025322739 0.11718044 0.013894802 0.0148341255 0.12375962 0.066792
0.016713923 0.11480928 0.17093918 0.045831807 0.13496198 0.1390717 0.1018251 0.146587
0.12628742 0.095544234 0.22274828 0.21356253 0.08999609 0.094558544 0.1844802 -0.08204219
0.077453025 0.05584852 0.06768709 -0.008099187 -0.078645624 0.07519252 -0.04609079 0.027734498
0.0597191 -0.09850765 0.0069953725 -0.037444152 0.07481478 -0.06711423 0.064001314 0.06573005
0.058155857 0.096997805 0.010034713 -0.10266098 0.06943528 0.0012488466 -0.006902633 -0.10581521
-0.03323658 -0.061478022 0.14196779 0.15911801 0.16334318 0.120826825 0.03471532 0.058290653
-0.024858553 0.024554515 0.15527792 0.049242813 0.11380685 0.025643595 -0.07705672 0.001384702
0.10540111 0.07238769 0.053844612 -0.012233255 -0.09835233 -0.06345661 0.039849937 -0.03676761
00000000: cdaf 85bd 873f a3bd 5cb6 9fbc f7a4 e0bc
00000010: 6f3d 853d ec55 aabb 82b9 0e3d 66ff 2fbd
00000020: 8a6a b23d 37fd de3d 12ca 9abd ef7e eabb
00000030: e916 79bd 1736 953d e2e8 80bd 6fde 77bc
00000040: d5be 0f3e 2a00 85bd 841b dd3d aac5 1f3d
00000050: d6ed ef3d 7482 20bc eb6c e83d 1b8b 733d
00000060: 0c99 7e3d 004e 023e 5cde 32bd 1ce1 adbd
00000070: bb7c d03d 53a2 81bd 4c9b 9bbd 73e2 a8bb
00000080: cd34 0abd 0c47 6cbc 9fa2 90bd 2cc9 1b3d
00000090: 5ac2 b9bd 79e0 0b3c 65f2 7b3d 73e9 a53c
000000a0: 3678 653c 0d9a 7c3c 6af7 fcbc 657f a4bc
000000b0: 9a11 36bd 757a 88bd 5b8a 54bd 8d3f de3d
000000c0: bdc1 6bbc d11b 233d 8dd9 9b3d a272 9abb
000000d0: 5a75 5bbd 282a 8bbd 806c 34bc 7373 853d
000000e0: 7d14 78bd 12da ce3c 4dfd a03d 0f1a 003e
000000f0: 92d2 9f3d 6f20 8c3d cdc7 f43d fd61 673d
00000100: 5527 323d 5254 c5bc 030d 97bd a6f1 3cbc
00000110: 5c55 efbb 0bbf a03c b8c0 863a 53b5 633d
00000120: 9875 a43d 0397 08bd 2cf7 b8bd 29eb 36bd
00000130: 7d53 2bbd 75c0 8c3d 3a01 6bbd 5232 beb9
00000140: 27d9 49bc 6e73 81bd 9965 473d 9d3d 30bd
00000150: 365d a4bb 748c 96bd 6799 22bc 2f1f 793c
00000160: a657 83bb 578a 1fbd 211b 103d 874e cabc
00000170: d51e 67bd f182 9abd cc70 abbc b3bf c9bd
00000180: 6588 b63d c422 4abd 45d6 2fbd c8eb d03c
00000190: 9a93 373d 15ad 743b 5f61 aa3d 0efa 50bd
000001a0: a477 353d 2a83 a73b 6155 a8bd a282 24bd
000001b0: cbc3 4f3d 6f08 323d 3276 be3d f105 af3d
000001c0: 4150 38bd 2e46 1cbd e796 7fbc a7af 92bd
000001d0: e6c3 e7bc e8a7 b0bd 1237 243d 22bf 983d
000001e0: 5cbd 083c 028b 9abd 7b7c a3bd 1615 28bd
000001f0: d327 fb3c a180 283b 6b01 9d3c 0c76 cb3d
00000200: 9986 483d b9ac b93c 1fb5 aebc eb3d 4c3d
00000210: 37f4 1d3d fb4f c2bd d60a 7fbd ec25 7b3b
00000220: 27ad 243d 14ad 523d 743b 80bd 9f32 d6bd
00000230: 8814 b6bb 3f58 3bbc dc07 fe3c ca5c eabc
00000240: 9513 cc3d 1e8e e33c a062 bf3d efaa 7abd
00000250: 384a 5e3d 4e2e a73c f982 3cbd f210 6c3d
00000260: 5330 d0bd ff9e bb3d 94dd 6c3c beac 5f3c
00000270: 7d38 583d 42e4 413c 756d 3d3d 0c51 8b3d
00000280: 4c98 a8bd 5c37 8d3d d940 5fbc 3a54 b4bc
00000290: 8531 c93c fcc5 ad3d 81ef 5dbd d131 8abd
000002a0: 270c 903d d0f0 34bd c92e 1f3d 59df 7fbc
000002b0: 57bc ec3c fe9c a43d 16d9 5abd 549d 51bd
000002c0: c9c6 533d 9a4e bc3b aa77 3ebc 63a2 bdbd
000002d0: 57b9 013e 6075 d63c 1737 a43a b095 03bc
000002e0: 7940 153c 8f46 913d a271 cf3c 4cfc ef3d
000002f0: 06a7 633c d50a 733c af75 fd3d 3eca 883d
00000300: a3eb 883c 2121 eb3d ae0a 2f3e 22ba 3b3d
00000310: 7933 0a3e d068 0e3e ae89 d03d e71a 163e
00000320: 7d51 013e b2ac c33d 2018 643e 23b0 5a3e
00000330: df4f b83d e9a7 c13d 61e8 3c3e bc05 a8bd
00000340: b19f 9e3d 6bc1 643d 879f 8a3d 74b2 04bc
00000350: f510 a1bd 89fe 993d b2c9 3cbd 7533 e33c
00000360: 049c 743d 61be c9bd 7039 e53b 0a5f 19bd
00000370: 7e38 993d 2f73 89bd 1f13 833d 7a9d 863d
00000380: d634 6e3d c9a6 c63d a368 243c eb3f d2bd
00000390: 1634 8e3d 57b0 a33a 7b2f e2bb a5b5 d8bd
000003a0: 1523 08bd 61d0 7bbd 0160 113e d5ef 223e
000003b0: 6f43 273e 0e74 f73d a731 0e3d 2ec2 6e3d
000003c0: 2aa4 cbbc 8d26 c93c 2d01 1f3e d5b2 493d
000003d0: 9113 e93d 8412 d23c eacf 9dbd e47e b53a
000003e0: 8adc d73d ff3f 943d 2b8c 5c3d fe6d 48bc
000003f0: f26c c9bd 8af5 81bd b039 233d a299 16bd

conv_block_2.2.bias f4 [10]
0.15766194 -0.057358257 -0.10992094 0.09528802 -0.10011945 0.0022950994 0.010243609 -0.08207621
0.43936765 -0.10643607
00000000: 2272 213e 7ef0 6abd 3b1e e1bd 5e26 c33d
00000010: 6d0b cdbd 6169 163b cfd4 273c 9217 a8bd
00000020: ccf4 e03e 27fb d9bd

conv_block_3.0.weight f4 [10, 10, 3, 3]
0.068439394 -0.062455725 -0.09905121 0.0783427 -0.063288495 -0.01143759 0.062791 -0.100429945
-0.10824723 0.038869116 0.092902094 -0.011679872 0.07618128 0.037811063 0.029991781 -0.06561768
0.100292176 0.047447387 0.012366414 0.03052025 -0.13473809 0.00585464 -0.110362984 -0.07478724
0.022175975 -0.015555674 -0.047690116 -0.076697916 -0.055845845 0.01559061 -0.011405447 -0.075010695
0.121354684 0.02097018 -0.060961336 0.064799696 0.04589123 -0.05167086 0.052859064 -0.065245554
0.036653783 0.10017229 0.069726504 0.05222978 -0.021282077 0.019746747 0.036972795 0.025898362
-0.02131416 0.0149444025 -0.042495772 -0.059474237 -0.09701329 -0.08574013 -0.06368118 0.10468157
0.024472926 -0.09173718 -0.04837292 0.029502269 -0.027498458 -0.023723785 -0.0339723 -0.03436686
-0.00237099 -0.008226455 0.05678093 0.050204776 0.06918787 -0.010811772 -0.061942868 -0.016494885
-0.028267952 0.08651857 0.032027416 0.008161855 -0.044782266 0.09824556 0.096459836 0.13810207
0.009615683 0.028976629 0.0013796805 -0.06934905 -0.06892418 0.051173802 -0.06298909 0.07367722
0.033920508 0.03334677 0.06951784 0.042157434 0.029384227 0.071763635 -0.04079673 -0.061913222
0.011924012 0.07607216 0.08141631 0.07437791 -0.037129696 -0.016802814 -0.07119472 0.06395369
-0.0734725 -0.035933487 0.091052584 0.025564475 -0.04681607 -0.09693623 -0.11202314 0.12846161
-0.08707776 0.07480504 0.17002827 0.055565804 0.015455388 0.08247139 0.047241736 0.100329824
0.085244104 -0.068949334 0.06463784 0.052555546 -0.075503856 0.048463665 -0.05471172 -0.0627429
0.0020085822 -0.012928603 -0.028288376 -0.06909852 0.05768217 0.10513291 -0.023353724 -0.071015425
-0.0054382253 -0.0916135 -0.08558765 -0.03513306 0.06620001 -0.08075921 -0.016839799 -0.05473627
-0.09675172 -0.023366474 -0.00566162 -0.017486267 0.07705628 0.042094227 0.06567719 0.040784117
0.010181163 0.06029481 -0.06941037 0.04793294 0.062059894 -0.040029038 -0.004431577 -0.06049964
-0.080192305 0.0068234834 0.012994035 -0.027855016 0.027478363 -0.0892686 -0.06364209 0.06572672
-0.112076074 0.008414817 0.070879765 0.07866942 0.035545196 -0.0963689 0.013233221 -0.037631072
-0.030075388 0.08055057 -0.03638901 -0.07593104 -0.062623456 0.07243909 -0.014162216 0.13170835
0.028745474 -0.12184032 0.054552812 0.10741501 0.04649242 0.03471014 -0.07612315 -0.0632075
0.077656604 -0.0655275 0.024151292 -0.004411316 0.04044601 0.005131306 -0.030258289 -0.036063224
0.033176325 0.078720674 0.06008124 -0.12698443 0.15635762 -0.0054931957 -0.10187812 0.021319514
-0.036225557 -0.040252436 -0.015580728 -0.0045347293 -0.05710364 0.034986306 -0.10228194 0.06551919
0.09783588 0.01712802 -0.02462663 -0.09646564 0.049634717 0.08642225 0.09014192 0.009509862
0.03512933 0.10096028 0.015722383 -0.05086261 -0.10009054 0.046084408 0.041052632 0.0936926
-0.053630546 0.045269225 -0.03439809 -0.025310079 0.062204268 -0.09627278 0.078914635 0.049933206
-0.06292531 0.0542159 -0.026034238 0.019703075 -0.025831703 -0.11324297 0.0027501583 0.054041963
-0.024875754 -0.037924625 0.007257419 0.008168327 -0.026535753 -0.072726645 -0.044867765 -0.014286157
00000000: f429 8c3d 93d1 7fbd 5cdb cabd 2372 a03d
00000010: 669d 81bd bb64 3bbc 9198 803d 37ae cdbd
00000020: b9b0 ddbd 3935 1f3d 7443 be3d ef5c 3fbc
00000030: ee04 9c3d c6df 1a3d 53b1 f53c 9062 86bd
00000040: fc65 cd3d 3158 423d 809c 4a3c 9a05 fa3c
00000050: c8f8 09be 48d8 bf3b fd05 e2bd 0d2a 99bd
00000060: 64aa b53c 3add 7ebc b656 43bd cc13 9dbd
00000070: 9dbe 64bd c26f 7f3c e9dd 3abc 359f 99bd
00000080: ce88 f83d a8c9 ab3c 98b2 79bd b4b5 843d
00000090: 71f8 3b3d d3a4 53bd bf82 583d 769f 85bd
000000a0: 4722 163d 2127 cd3d c5cc 8e3d e5ee 553d
000000b0: c057 aebc eec3 a13c c970 173d cd28 d43c
000000c0: 099b aebc 5ed9 743c 0c10 2ebd 429b 73bd
000000d0: e7ae c6bd 8598 afbd 476b 82bd 4a63 d63d
000000e0: 727b c83c b4e0 bbbd af22 46bd beae f13c
000000f0: 7244 e1bc 6258 c2bc 8a26 0bbd 44c4 0cbd
00000100: 9d62 1bbb 41c8 06bc 1f93 683d 86a3 4d3d
00000110: 5fb2 8d3d dc23 31bc ceb7 7dbd 4820 87bc
00000120: 3192 e7bc a630 b13d 2e2f 033d 4db9 053c
00000130: 9c6d 37bd f834 c93d bc8c c53d a16a 0d3e
00000140: 198b 1d3c 6560 ed3c 65d6 b43a e006 8ebd
00000150: 1f28 8dbd 9f9b 513d 6d00 81bd 15e4 963d
00000160: 3bf0 0a3d 9f96 083d 5f5f 8e3d 46ad 2c3d
00000170: 31b7 f03c d0f8 923d 791a 27bd b898 7dbd
00000180: ee5c 433c b8cb 9b3d 98bd a63d 7253 983d
00000190: 4f15 18bd 0ea6 89bc 8ace 91bd 27fa 823d
000001a0: c078 96bd fe2e 13bd c779 ba3d 976c d13c
000001b0: 35c2 3fbd 8186 c6bd 636c e5bd 718b 033e
000001c0: d355 b2bd 6333 993d e41b 2e3e f898 633d
000001d0: 9938 7d3c c3e6 a83d 8d80 413d b979 cd3d
000001e0: 7694 ae3d 4f35 8dbd d860 843d 7c44 573d
000001f0: c4a1 9abd d681 463d 6619 60bd 597f 80bd
00000200: 6ba2 033b 7ed2 53bc 06bd e7bc 8683 8dbd
00000210: 2444 6c3d ec4f d73d 4f50 bfbc 8970 91bd
00000220: 2433 b2bb dc9f bbbd 9448 afbd afe7 0fbd
00000230: df93 873d 1665 a5bd 9ef3 89bc 2433 60bd
00000240: c425 c6bd 0c6b bfbc 1c85 b9bb 5c3f 8fbc
00000250: afcf 9d3d ff6a 2c3d c381 863d 3f0d 273d
00000260: e5ce 263c b1f7 763d 0627 8ebd 5555 443d
00000270: 8432 7e3d 7df5 23bd c336 91bb 78ce 77bd
00000280: dd3b a4bd 8797 df3b efe4 543c 3430 e4bc
00000290: 4e1a e13c 75d2 b6bd c956 82bd bb9b 863d
000002a0: 2488 e5bd 4dde 093c 6929 913d 6f1d a13d
000002b0: d797 113d 0f5d c5bd 27d0 583c 0a23 1abd
000002c0: a960 f6bc b2f7 a43d a40c 15bd bc81 9bbd
000002d0: ba40 80bd f25a 943d a408 68bc 8ede 063e
000002e0: a17b eb3c 6b87 f9bd c572 5f3d 67fc db3d
000002f0: d66e 3e3d 382c 0e3d 74e6 9bbd ef72 81bd
00000300: 6d0a 9f3d 4833 86bd eed8 c53c cd8c 90bb
00000310: b7aa 253d 8424 a83b 3be0 f7bc 08b7 13bd
00000320: e6e3 073d 4e38 a13d bf17 763d 3508 02be
00000330: 361c 203e 4400 b4bb 7aa5 d0bd 43a6 ae3c
00000340: 4061 14bd bddf 24bd 4f46 7fbc 1198 94bb
00000350: 82e5 69bd cd4d 0f3d 3279 d1bd ed2e 863d
00000360: 2e5e c83d 1050 8c3c c9bd c9bc c78f c5bd
00000370: c64d 4b3d 26fe b03d 549c b83d 41cf 1b3c
00000380: c6e3 0f3d 43c4 ce3d 3acc 803c 5055 50bd
00000390: 45fc ccbd 01c3 3c3d ce26 283d e8e1 bf3d
000003a0: b4ab 5bbd 396c 393d 03e5 0cbd 1557 cfbc
000003b0: e7c9 7e3d aa2a c5bd ff9d a13d c386 4c3d
000003c0: fcde 80bd 7e11 5e3d c145 d5bc 5868 a13c
000003d0: 029d d3bc eeeb e7bd 003c 343b 1b5b 5d3d
000003e0: 3dc8 cbbc da56 1bbd a5cf ed3b 72d4 053c
000003f0: 8261 d9bc b5f1 94bd 43c7 37bd 7c10 6abc

conv_block_3.0.bias f4 [10]
0.14480354 -0.077936284 -0.094167076 -0.014784405 -0.0033758574 0.3749309 0.29500642 -0.018059788
0.09814023 0.12900345
00000000: 6147 143e 0f9d 9fbd abda c0bd 4a3a 72bc
00000010: 7d3d 5dbb f1f6 bf3e 150b 973e 1ff2 93bc
00000020: bffd c83d 7b19 043e

conv_block_3.2.weight f4 [10, 10, 3, 3]
-0.032041393 -0.090259515 0.032881647 -0.10009045 -0.00064781954 0.01581851 -0.058995456 0.032113004
0.022180432 0.06371185 0.06898147 -0.073522426 -0.09296933 -0.047432788 -0.0764334 0.014122143
-0.08471514 -0.09143588 0.021963604 0.06505467 -0.016630134 -0.117414154 0.007684533 0.055735063
0.06788646 -0.0011054395 0.067164876 -0.09403748 0.10395369 -0.063371256 -0.0784893 0.07131674
-0.025508855 0.05528471 -0.082704365 0.07219676 0.09264899 0.05960592 0.093175285 -0.1029709
-0.010770758 0.042370275 -0.008707117 -0.08745716 0.04710747 -0.05851858 -0.0761365 0.012048213
-0.10063389 -0.11164806 0.029282521 0.030858967 0.03595659 -0.013173369 -0.09785498 -0.0969048
0.09990885 -0.1182575 0.00962403 0.07393467 0.05762705 -0.08895676 -0.051599618 -0.08501345
0.06534241 -0.09857735 -0.09775348 -0.07114472 0.08566968 0.06724614 0.06990068 0.08080723
-0.049134962 -0.058678627 -0.064282864 0.03415935 0.04113186 0.022989588 -0.07955084 0.011767561
-0.05267976 -0.01920315 -0.023526449 -0.013735788 -0.08051762 0.099034466 -0.046643417 0.05426719
0.095656134 0.057534978 0.09053196 0.08241275 0.08976362 0.041429546 0.09485009 -0.031108214
-0.04222545 0.07312257 0.041044895 0.0009026135 -0.08652521 0.03068155 0.073927626 -0.009027221
0.020106776 0.05666194 -0.09389454 -0.013792984 -0.031154273 -0.050159633 0.05932258 0.11481761
0.02110509 0.05929509 -0.069371484 0.024955867 -0.01435411 -0.06399815 0.020708015 0.030808145
-0.0047042877 0.04357424 0.048119757 0.098138854 0.008751943 0.0052834945 5.302338e-05 -0.029255401
-0.1167272 -0.005770518 -0.13299051 -0.12539141 -0.06291354 0.054442424 -0.09428821 0.003939434
0.03026444 0.11497954 0.06087708 -0.052667752 0.12996154 -0.08718071 0.0384523 0.12685661
0.102616265 -0.009046952 -0.05292662 0.05724912 0.09885734 -0.034494463 -0.0018158292 -0.03832364
0.07146836 0.020523923 0.0492342 -0.03904391 -0.102592476 -0.046471566 -0.08482887 -0.023987416
0.040366966 -0.083994985 0.0040292107 -0.091525525 -0.06324204 -0.064803556 -0.023989784 -0.04187924
0.02501764 0.07440454 0.08749837 0.024005955 -0.0030914987 -0.0031593838 0.06146205 -0.0609438
0.09598747 -0.10876019 -0.07965385 0.043965396 -0.0032775886 0.05902238 0.10538508 0.09375296
0.14966403 -0.027760994 -0.020492243 0.023094654 -0.005519607 -0.041246638 -0.009538357 0.08454615
-0.04325382 0.064092085 0.04286276 0.0967826 0.059525583 -0.023180468 0.055706087 -0.051188257
-0.07791055 0.11702148 0.09052141 -0.089524545 0.10969058 0.041588195 0.03136025 0.09992591
-0.010504728 -0.041196667 0.06789883 -0.027833952 -0.027994787 -0.028820854 0.11712433 0.059539028
-0.06846469 -0.12659183 -0.09323509 -0.100045696 -0.09595427 -0.194137 0.0473375 -0.06302325
-0.09593832 0.1400686 0.07762717 0.09110119 -0.017333394 0.07840646 0.08323962 0.099124394
0.027954387 0.03676545 -0.06360165 0.0859747 0.087407194 0.08926804 0.09747637 0.10338567
0.15530616 0.10244617 0.102942675 0.026135951 -0.068153255 0.019252166 0.03126012 -0.08646702
-0.033016793 -0.055128593 -0.05430174 0.088216 0.110588506 0.010959029 0.054708444 -0.00015847848
00000000: d63d 03bd fbd9 b8bd e8ae 063d 39fc ccbd
00000010: 6fd2 29ba d295 813c 38a5 71bd ed88 033d
00000020: bdb3 b53c 5c7b 823d 2846 8d3d ed92 96bd
00000030: b466 bebd e248 42bd 1d89 9cbd 9060 673c
00000040: 227f adbd bc42 bbbd 04ed b33c 623b 853d
00000050: eb3b 88bc d576 f0bd 89ce fb3b 734a 643d
00000060: 0e08 8b3d 65e4 90ba bd8d 893d b996 c0bd
00000070: ace5 d43d cac8 81bd 00bf a0bd 830e 923d
00000080: f2f7 d0bc 3872 623d e860 a9bd e5db 933d
00000090: c1be bd3d 5625 743d afd2 be3d 68e2 d2bd
000000a0: d577 30bc 748c 2d3d 4ca8 0ebc bd1c b3bd
000000b0: c3f3 403d 2eb1 6fbd 74ed 9bbd de65 453c
000000c0: 2419 cebd bda7 e4bd e6e1 ef3c f2cb fc3c
000000d0: 3847 133d 1dd5 57bc 3168 c8bd 0676 c6bd
000000e0: 039d cc3d fd30 f2bd 1cae 1d3c 0f6b 973d
000000f0: 570a 6c3d f62e b6bd 1f5a 53bd 881b aebd
00000100: 3ed2 853d ece2 c9bd fa32 c8bd 53b4 91bd
00000110: 9673 af3d 58b8 893d 1628 8f3d 437e a53d
00000120: be41 49bd 0059 70bd bca6 83bd adea 0b3d
00000130: e279 283d a954 bc3c 8deb a2bd bacc 403c
00000140: bbc6 57bd ed4f 9dbc 8aba c0bc 120c 61bc
00000150: 6ce6 a4bd 95d2 ca3d 2b0d 3fbd 4647 5e3d
00000160: 5de7 c33d cca9 6b3d d268 b93d 04c8 a83d
00000170: fdd5 b73d 07b2 293d c440 c23d a7d6 febc
00000180: 98f4 2cbd 49c1 953d b11e 283d 5e9d 6c3a
00000190: 2134 b1bd e057 fb3c 5e67 973d e9e6 13bc
000001a0: f7b6 a43c 5a16 683d c84b c0bd f8fb 61bc
000001b0: 3f37 ffbc 3074 4dbd 3cfc 723d 7f25 eb3d
000001c0: 95e4 ac3c 69df 723d a312 8ebd 3f70 cc3c
000001d0: 802d 6bbc 7611 83bd dba3 a93c 5d61 fc3c
000001e0: 6d26 9abb e77a 323d 3919 453d 06fd c83d
000001f0: 4f64 0f3c 2a21 ad3b 6c65 5e38 06a9 efbc
00000200: ac0e efbd 9d16 bdbb aa2e 08be 9b66 00be
00000210: d0d8 80bd 05ff 5e3d 2d1a c1bd 5e16 813b
00000220: 22ed f73c 657a eb3d 3f5a 793d 24ba 57bd
00000230: a314 053e cd8b b2bd 2980 1d3d b3e6 013e
00000240: 7a28 d23d ab39 14bc 95c9 58bd 0e7e 6a3d
00000250: b875 ca3d 114a 0dbd 1e01 eeba 40f9 1cbd
00000260: 015e 923d c921 a83c cda9 493d 82ec 1fbd
00000270: 011c d2bd f858 3ebd c2ba adbd 4281 c4bc
00000280: d557 253d 9005 acbd 7807 843b bc71 bbbd
00000290: 0b85 81bd bab7 84bd 3986 c4bc 9189 2bbd
000002a0: cbf1 cc3c 6861 983d 5832 b33d 23a8 c43c
000002b0: be9a 4abb aa0d 4fbb a1bf 7b3d 35a0 79bd
000002c0: 1495 c43d aabd debd 8f21 a3bd 0f15 343d
000002d0: d0cc 56bb 73c1 713d 22d4 d73d 8d01 c03d
000002e0: 8741 193e 066b e3bc 59df a7bc 0031 bd3c
000002f0: d2dd b4bb 3cf2 28bd c546 1cbc 8826 ad3d
00000300: eb2a 31bd b642 833d dd90 2f3d f535 c63d
00000310: 19d1 733d f7e4 bdbc 112c 643d c7aa 51bd
00000320: 918f 9fbd f5a8 ef3d 4a63 b93d a558 b7bd
00000330: 74a5 e03d 6258 2a3d 9b73 003d f5a5 cc3d
00000340: 061c 2cbc d6bd 28bd 8b0e 8b3d 0704 e4bc
00000350: 5355 e5bc b619 ecbc e1de ef3d 32df 733d
00000360: 3737 8cbd 4aa1 01be 0af2 bebd c2e4 ccbd
00000370: ac83 c4bd dacb 46be f7e4 413d 5512 81bd
00000380: 4f7b c4bd 256e 0f3e fefa 9e3d 4393 ba3d
00000390: c3fe 8dbc 9193 a03d 8979 aa3d bb01 cb3d
000003a0: 9900 e53c 5e97 163d 9541 82bd 8113 b03d
000003b0: 8b02 b33d 2ad2 b63d b1a1 c73d debb d33d
000003c0: 9408 1f3e 4ccf d13d 9cd3 d23d 101b d63c
000003d0: ef93 8bbd b8b6 9d3c 9d0a 003d 9f15 b1bd
000003e0: 9e3c 07bd 85ce 61bd 806b 5ebd 97aa b43d
000003f0: 3a7c e23d 808d 333c f615 603d 3e2d 26b9

conv_block_3.2.bias f4 [10]
-0.06306927 0.09431509 0.10724008 -0.09893416 0.022270598 0.035335638 -0.08510154 0.14246084
0.11823351 0.10746502
00000000: 762a 81bd 4528 c13d b0a0 db3d fe9d cabd
00000010: d470 b63c 1abc 103d b749 aebd 41e1 113e
00000020: 6924 f23d 9f16 dc3d

classifier.1.weight f4 [2, 7840]
-0.00064565276 0.0015954525 0.0022908784 0.013830472 0.00745741 0.021171674 0.023964036 0.00992987
0.0005740385 0.017877087 0.023230355 0.01468758 0.009870082 0.010733275 0.013762085 -0.00044405015
0.013143623 0.0100220805 -7.931945e-06 -0.0012856587 -0.0061827037 0.004817422 0.0041164337 0.0034208763
-0.00057576405 0.0014115158 0.01077843 0.003806354 -0.010572333 0.01586834 0.0063080094 0.010218494
0.0022460164 0.011066825 0.015760291 0.00373561 0.007653436 0.006051807 -0.0123699745 0.014369991
0.0030917951 0.007601004 0.012866773 -0.0009951923 -0.0113687385 -0.018383043 0.001241001 -0.007637783
-0.004528035 -0.017424947 -0.0033828942 0.005599668 0.01204499 -0.00012310734 0.0014551879 -0.0019739051
-0.018980658 0.003398282 -0.006468635 -0.0038932469 0.0048336512 0.00077138573 0.001417076 0.024876693
-0.0018441232 -0.009444629 0.015302316 0.01970382 0.00200327 0.007154525 0.019146265 0.018448956
-0.00037872614 0.013106196 0.017931689 0.016709661 -0.012204273 -0.013710036 -0.006941188 -0.008471438
-0.0009055153 0.009951291 -0.0067652413 0.0051273857 -0.031346463 -0.03737147 -0.0116761215 -0.006444584
-0.0066041513 -0.023400819 0.015211677 0.014186853 0.028383968 0.016678957 0.011377165 0.0034851413
-0.012887453 -0.015124816 -0.0009512165 0.017485095 0.018073965 0.034938235 0.028706541 0.018802661
0.013008233 -0.019841347 -0.010756159 0.00088550954 -0.010647672 -0.008798608 -0.0066432366 -0.008712654
-0.0048561315 -0.029385 -0.018470813 -0.010224457 -0.010661678 -0.020452516 -0.007856773 0.018999292
0.017314084 0.026510939 0.0051148 0.013240013 -0.002740127 -0.034820072 -0.009273403 -0.0008158869
0.0011180246 0.016878797 0.017472353 0.017948437 0.002513682 -0.0015275755 -0.0114086885 -0.007781582
-0.0067608114 -0.005186124 -7.8124125e-05 -0.012207854 0.0076744906 -0.0021914507 -0.00044547705 0.008015905
0.0010555348 -0.0048719184 -0.0071231993 -0.0051311795 0.00601644 0.035640296 0.006448327 0.016198564
-0.010804529 -0.019629685 -0.005313817 0.004332037 0.016323684 0.0076339445 -0.012175588 0.0074306387
-0.007523942 0.0063167643 -0.007187855 0.002114738 0.011122324 0.0025834406 0.0016710843 -0.0068202545
-0.0044467268 0.026293125 0.007562996 0.007892966 0.009272613 0.009447818 -0.00810249 0.00521955
-0.0032146806 0.0048022945 -0.005866734 -0.018168239 -0.011779723 -0.02245131 -0.021006627 -0.011934404
0.014285379 0.011722123 -0.0009859221 0.010032268 -0.005191897 -0.022525521 0.010401108 -0.003944632
0.019219194 -0.0028783358 0.0035145304 0.0048775137 -0.004673721 0.023949984 0.008642042 0.001906741
-0.006714647 0.0050354884 -0.0069100736 -0.001198222 0.005386309 0.019598229 0.006696941 -0.009672381
-0.01632589 -0.023932036 -0.025819292 -0.011460548 -0.0058040502 0.01746379 0.024158748 -0.0038921284
0.0030711293 -0.0059247417 -0.010122308 0.0024755881 0.00879168 0.012185308 0.007523895 0.0017612831
-0.015849775 0.0015352907 0.02031991 0.024849998 0.0033566 -1.6392005e-05 0.0044823773 -0.0010231392
0.01941082 -0.010837882 -0.023002317 -0.027279489 -0.016992653 -0.012342773 -0.012566156 -0.019866897
-0.015278759 0.00956122 0.019916125 0.011042749 -0.00081350585 0.004955054 0.011242528 0.012184682
0.0052694357 0.0029222695 -0.0047026183 -0.0056065996 -0.011880392 0.00957369 0.017650325 0.014606692
00000000: 0641 29ba 811e d13a 9022 163b 3499 623c
00000010: 4a5d f43b 3870 ad3c 3a50 c43c e5b0 223c
00000020: 127b 163a f872 923c 964d be3c 2da4 703c
00000030: 20b6 213c 9eda 2f3c 5e7a 613c 67cf e8b9
00000040: 5a58 573c a733 243c 7213 05b7 8c83 a8ba
00000050: 4798 cabb 77db 9d3b 26e3 863b c830 603b
00000060: dfee 16ba 9c02 b93a 0398 303c 0674 793b
00000070: 9437 2dbc 52fe 813c 6bb3 ce3b 786b 273c
00000080: e731 133b a151 353c ba1b 813c 23d1 743b
00000090: adc9 fa3b 3d4e c63b 6fab 4abc 1c70 6b3c
000000a0: b79f 4a3b d811 f93b 28cf 523c 1d71 82ba
000000b0: f243 3abc 0998 96bc 15a9 a23a 5e46 fabb
000000c0: e95f 94bb c3be 8ebc 8cb3 5dbb 6b7d b73b
000000d0: 5a58 453c 6016 01b9 01bc be3a a25c 01bb
000000e0: 537d 9bbc b6b5 5e3b d8f6 d3bb d825 7fbb
000000f0: 9b63 9e3b d236 4a3a 2ebd b93a 35ca cb3c
00000100: 82b6 f1ba a5bd 1abc 91b6 7a3c e869 a13c
00000110: 4b49 033b 8170 ea3b a1d8 9c3c 4422 973c
00000120: c38f c6b9 5fbb 563c 7ae5 923c b3e2 883c
00000130: 6ef4 47bc 0fa0 60bc e872 e3bb c9cb 0abc
00000140: 1a60 6dba bd0a 233c f5ae ddbb a103 a83b
00000150: 2665 00bd d412 19bd 344d 3fbc 172d d3bb
00000160: a367 d8bb 13b3 bfbc 663a 793c f96f 683c
00000170: 7f85 e83c 4fa2 883c 4a67 3a3c f866 643b
00000180: e525 53bc 14ce 77bc 0f5b 79ba e73c 8f3c
00000190: da0f 943c 651b 0f3d fb29 eb3c 0a08 9a3c
000001a0: 7c20 553c 528a a2bc 9a3a 30bc 8a21 683a
000001b0: 9373 2ebc 0928 10bc 82af d9bb 85bf 0ebc
000001c0: 2f20 9fbb d0b8 f0bc 1a50 97bc 7b84 27bc
000001d0: 52ae 2ebc 098c a7bc b2b9 00bc 67a4 9b3c
000001e0: 44d6 8d3c 782d d93c 0d9a a73b a4ec 583c
000001f0: b493 33bb 7e9f 0ebd 79ef 17bc 3ee1 55ba
00000200: ae8a 923a 6745 8a3c 2e22 8f3c 9a08 933c
00000210: 96bc 243b ee38 c8ba 82eb 3abc a4fc febb
00000220: cc89 ddbb 5cf0 a9bb 92d6 a3b8 7303 48bc
00000230: 4b7a fb3b 719e 0fbb eb8e e9b9 2455 033c
00000240: df59 8a3a 9da4 9fbb ba69 e9bb 7423 a8bb
00000250: 8f25 c53b 8ffb 113d 7d4c d33b dab2 843c
00000260: 7b05 31bc 6fce a0bc 871f aebb c3f3 8d3b
00000270: 3fb9 853c 2b26 fa3b 1e7c 47bc b77c f33b
00000280: 668b f6bb dcfc ce3b 1988 ebbb 6b97 0a3b
00000290: 683a 363c f14e 293b 4908 db3a 717c dfbb
000002a0: d9b5 91bb ae64 d73c 02d3 f73b 8051 013c
000002b0: 28ec 173c 05cb 1a3c 4ec0 04bc c208 ab3b
000002c0: 64ad 52bb 915c 9d3b bb3d c0bb 8fd5 94bc
000002d0: bdff 40bc cfeb b7bc 1716 acbc 8588 43bc
000002e0: 390d 6a3c 260e 403c 0e3a 81ba 625e 243c
000002f0: ca20 aabb 7187 b8bc 6969 2a3c f941 81bb
00000300: 9271 9d3c 76a2 3cbb 0954 663b 8dd3 9f3b
00000310: 0326 99bb c232 c43c 5a97 0d3c 9ceb f93a
00000320: 8b06 dcbb bd00 a53b e66d e2bb a90d 9dba
00000330: a37f b03b 778c a03c 0372 db3b e878 1ebc
00000340: dfbd 85bc 1e0d c4bc fb82 d3bc 06c5 3bbc
00000350: e72f bebb 3910 8f3c 91e8 c53c 1413 7fbb
00000360: 0045 493b 5624 c2bb 09d8 25bc 7a3d 223b
00000370: fb0a 103c e3a4 473c 018b f63b dbda e63a
00000380: 63d7 81bc cf3b c93a f175 a63c 3992 cb3c
00000390: 67fa 5b3b 9081 89b7 e8e0 923b db1a 86ba
000003a0: 7103 9f3c 5f91 31bc 5b6f bcbc 3c79 dfbc
000003b0: 2d34 8bbc 5839 4abc 47e2 4dbc e7bf a2bc
000003c0: c353 7abc aaa6 1c3c 2427 a33c a5ec 343c
000003d0: 7441 55ba 015e a23b 9532 383c 43a2 473c
000003e0: 3bab ac3b 8c83 3f3b 6c18 9abb 91b7 b7bb
000003f0: faa5 42bc f7da 1c3c 6a97 903c e850 6f3c

classifier.1.bias f4 [2]
-0.09307126 0.08881473
00000000: 259c bebd 7fe4 b53d
